Training data size: 40000
Test data size: 10000
Validation data size: 10000
Model: "sequential_1"
_________________________________________________________________
 Layer (type)                Output Shape              Param #   
=================================================================
 conv2d_5 (Conv2D)           (None, 55, 55, 96)        34944     
                                                                 
 batch_normalization_5 (Batc  (None, 55, 55, 96)       384       
 hNormalization)                                                 
                                                                 
 max_pooling2d_3 (MaxPooling  (None, 27, 27, 96)       0         
 2D)                                                             
                                                                 
 conv2d_6 (Conv2D)           (None, 27, 27, 256)       614656    
                                                                 
 batch_normalization_6 (Batc  (None, 27, 27, 256)      1024      
 hNormalization)                                                 
                                                                 
 max_pooling2d_4 (MaxPooling  (None, 13, 13, 256)      0         
 2D)                                                             
                                                                 
 conv2d_7 (Conv2D)           (None, 13, 13, 384)       885120    
                                                                 
 batch_normalization_7 (Batc  (None, 13, 13, 384)      1536      
 hNormalization)                                                 
                                                                 
 conv2d_8 (Conv2D)           (None, 13, 13, 384)       1327488   
                                                                 
 batch_normalization_8 (Batc  (None, 13, 13, 384)      1536      
 hNormalization)                                                 
                                                                 
 conv2d_9 (Conv2D)           (None, 13, 13, 256)       884992    
                                                                 
 batch_normalization_9 (Batc  (None, 13, 13, 256)      1024      
 hNormalization)                                                 
                                                                 
 max_pooling2d_5 (MaxPooling  (None, 6, 6, 256)        0         
 2D)                                                             
                                                                 
 flatten_1 (Flatten)         (None, 9216)              0         
                                                                 
 dense_3 (Dense)             (None, 4096)              37752832  
                                                                 
 dropout_2 (Dropout)         (None, 4096)              0         
                                                                 
 dense_4 (Dense)             (None, 4096)              16781312  
                                                                 
 dropout_3 (Dropout)         (None, 4096)              0         
                                                                 
 dense_5 (Dense)             (None, 10)                40970     
                                                                 
=================================================================
Total params: 58,327,818
Trainable params: 58,325,066
Non-trainable params: 2,752
_________________________________________________________________
Epoch 1/35
...

Epoch 10/35

2022-10-30 03:08:02.884233: I tensorflow/core/kernels/data/shuffle_dataset_op.cc:390] Filling up shuffle buffer (this may take a while): 16609 of 40000
…
